saved_model.pt (torch_old, 328792 bytes, 8 tensors)

conv1.weight f4 [50, 3, 5, 5]
0.049259674 0.017774614 0.05020876 -0.0839447 0.009452959 0.007797325 -0.17364308 0.11049211
-0.07209541 0.112892285 -0.12727307 0.11363073 -0.005280463 -0.041133534 0.15363567 -0.29994705
-0.21100841 0.041268256 0.107660316 0.02437985 -0.0918819 -0.30454123 0.010591363 0.103097275
0.12878701 0.047117196 -0.026480535 -0.08449922 -0.015385966 0.00868059 -0.09657836 -0.17699152
0.09762229 -0.037143875 0.10081129 -0.16558503 -0.06397411 0.12904719 0.0964842 0.12876081
-0.30277064 -0.061930086 0.12325204 0.08099872 0.04109315 -0.08643871 -0.14618151 -0.06861886
0.116359435 0.08295458 0.0052810693 -0.102349274 -0.053651135 -0.010722609 0.011021441 -0.08206221
-0.043213934 0.06527933 0.124914125 0.106216684 -0.14343202 0.075912446 0.15982784 0.12157115
0.1616243 -0.11941432 -0.11341009 0.14431748 -0.032113157 0.1656343 -0.14004874 -0.30646902
-0.14206636 0.048446022 0.1720458 -0.08393886 -0.06984314 -0.10153498 -0.22160019 0.0318001
0.1436937 0.05915525 0.09275728 -0.26820108 -0.20192054 0.16538914 0.1669489 0.08703658
-0.0057630558 -0.21170832 0.15643199 -0.1477546 0.098476015 -0.0144044645 0.032370027 0.0073078233
-0.08834925 0.034881774 -0.034325775 -0.16540389 0.010422061 -0.16656853 0.017762292 -0.19537145
0.1346965 0.023134867 0.23320861 0.02460087 -0.24134882 -0.11159363 0.13429369 0.060310546
-0.025854694 -0.0025787335 -0.16483562 0.19271706 -0.0075823297 0.029461967 0.040317122 -0.12579808
-0.03678775 -0.10055357 0.064509116 0.056151964 -0.12676688 0.014169044 -0.16072918 0.016404595
-0.2322323 0.057242397 0.1007966 0.22466104 -0.028215574 -0.122152984 -0.31755957 0.23803544
0.057605445 -0.025551736 -0.13653836 -0.13186416 0.09118795 -0.100430116 -0.03977429 -0.07222554
-0.022865478 0.11810138 0.1072835 0.058484554 0.12770954 -0.112854905 -0.0976015 -0.08316989
0.111478336 -0.08013763 -0.1013254 0.13011706 0.14232807 -0.06249307 -0.1440063 -0.2876141
-0.029777166 -0.014852957 0.08990914 -0.199113 -0.0888844 -0.06040306 -0.009540491 0.16476136
-0.23287901 0.0065625426 -0.017035857 0.15253977 0.057762463 -0.21108426 0.10085255 -0.06308707
0.060271066 0.10685198 -0.15990749 -0.28731045 0.16835158 0.15812093 0.06805965 0.018354021
-0.33415696 0.090970114 0.08297951 0.10017614 -0.13606237 -0.13021429 0.03845499 0.19312172
0.09902881 -0.30440703 0.084666245 0.008451684 0.038801726 0.00765752 -0.13291286 -0.032196235
-0.09532666 -0.028939495 0.08202919 -0.1671023 -0.15609398 0.02760229 0.16287553 0.044370286
0.037357844 -0.25488302 -0.041962817 0.06822649 -0.08167565 -0.14783394 -0.2595771 -0.03422605
0.028452722 0.18811221 -0.2910664 -0.08386877 0.12459134 0.23648906 0.1010311 -0.21968672
-0.038833328 0.023253743 0.0006494586 0.07406311 0.0007794163 -0.028422873 0.056640044 0.0036823808
-0.08476862 -0.13485387 0.041550696 0.17833368 0.1059528 -0.0021036891 -0.077246495 -0.17748882
0.014849829 -0.18885127 0.037055075 -0.048203748 -0.058146797 -0.28834438 0.00663693 0.037575196
-0.013854456 0.06782991 -0.051289115 -0.14326996 -0.035725616 -0.100447856 0.026426464 0.16467269
00000000: 83c4 493d 119c 913c b3a7 4d3d 33eb abbd
00000010: 95e0 1a3c b480 ff3b 7ecf 31be b049 e23d
00000020: c2a6 93bd 1234 e73d df53 02be 3ab7 e83d
00000030: bc07 adbb a37b 28bd ab52 1d3e a992 99be
00000040: 9712 58be e708 293d 037d dc3d 40b8 c73c
00000050: 942c bcbd d4ec 9bbe 6587 2d3c aa24 d33d
00000060: bee0 033e f6fd 403d b5ed d8bc ed0d adbd
00000070: 6b15 7cbc 0939 0e3c e0ca c5bd 443d 35be
00000080: 32ee c73d 2d24 18bd 2676 ce3d 1f8f 29be
00000090: dc04 83bd f224 043e 8299 c53d e0d9 033e
000000a0: c104 9bbe 67aa 7dbd 916b fc3d a8e2 a53d
000000b0: 4a51 283d c706 b1bd 9bb0 15be 0b88 8cbd
000000c0: db4d ee3d 17e4 a93d d20c ad3b 7f9c d1bd
000000d0: 4bc1 5bbd e2ad 2fbc 4693 343c 3b10 a8bd
000000e0: 1801 31bd 2bb1 853d fad2 ff3d 2288 d93d
000000f0: d8df 12be fc77 9b3d e9a9 233e 4cfa f83d
00000100: d780 253e 7f8f f4bd 8d43 e8bd f6c7 133e
00000110: 1689 03bd 0a9c 293e f068 0fbe 82e9 9cbe
00000120: d879 11be 566f 463d c62c 303e 23e8 abbd
00000130: ec09 8fbd 92f1 cfbd 29eb 62be d240 023d
00000140: 7124 133e c74c 723d 87f7 bd3d a751 89be
00000150: 42c4 4ebe c55b 293e a7f4 2a3e 3c40 b23d
00000160: 04d8 bcbb 11ca 58be b52f 203e fb4c 17be
00000170: cbad c93d b400 6cbc 6f96 043d 7776 ef3b
00000180: 74f0 b4bd 31e0 0e3d 2f99 0cbd a35f 29be
00000190: 4bc1 2a3c f190 2abe 3a82 913c 740f 48be
000001a0: e1ed 093e 5585 bd3c 3dce 6e3e c487 c93c
000001b0: 2524 77be 338b e4bd 4984 093e 3108 773d
000001c0: 39cd d3bc f8ff 28bb abca 28be 9f57 453e
000001d0: 3175 f8bb 395a f13c 9123 253d 36d1 00be
000001e0: c0ae 16bd 08ef cdbd 5b1d 843d 9aff 653d
000001f0: 2dcf 01be 4725 683c 3196 24be ee62 863c
00000200: 4ece 6dbe 0177 6a3d 736e ce3d 8b0d 663e
00000210: 5924 e7bc 582b fabd 2b97 a2be 90bf 733e
00000220: b0f3 6b3d e051 d1bc b6d0 0bbe 6607 07be
00000230: bfc0 ba3d 4eae cdbd 5eea 22bd fcea 93bd
00000240: 6250 bbbc 23df f13d 74b7 db3d 808d 6f3d
00000250: 4ac6 023e 7920 e7bd 4ce3 c7bd fa54 aabd
00000260: c14e e43d 331f a4bd b183 cfbd 683d 053e
00000270: 73be 113e bcf8 7fbd 6376 13be 2842 93be
00000280: 3eef f3bc d159 73bc 4822 b83d 47e4 4bbe
00000290: 0609 b6bd 3369 77bd b84f 1cbc 34b7 283e
000002a0: d677 6ebe 990a d73b c88e 8bbc 6333 1c3e
000002b0: 5598 6c3d 7926 58be c88b ce3d cb33 81bd
000002c0: cbde 763d 36d5 da3d cabe 23be 5b1a 93be
000002d0: 5b64 2c3e 74ea 213e dc62 8b3d 2c5b 963c
000002e0: 9f16 abbe 8a4e ba3d 29f1 a93d 2629 cd3d
000002f0: ef53 0bbe e556 05be fb82 1d3d b3c1 453e
00000300: 9ecf ca3d 3ddb 9bbe 7f65 ad3d ef78 0a3c
00000310: 8fee 1e3d efeb fa3b 4f1a 08be 33e0 03bd
00000320: a03a c3bd 8512 edbc ecfe a73d de1c 2bbe
00000330: 1ad7 1fbe 331e e23c d8c8 263e 9ebd 353d
00000340: 8a04 193d 0780 82be 34e1 2bbd 54ba 8b3d
00000350: 9045 a7bd c861 17be 4ae7 84be 9d30 0cbd
00000360: af15 e93c 7da0 403e a806 95be 64c3 abbd
00000370: bf29 ff3d 302a 723e 65e9 ce3d 8ef5 60be
00000380: b20f 1fbd a27e be3c 6e40 2a3a 66ae 973d
00000390: be51 4c3a 16d7 e8bc 64ff 673d 1954 713b
000003a0: 2c9b adbd 2217 0abe 1031 2a3d 1b9d 363e
000003b0: c8fd d83d 0cde 09bb 6933 9ebd a1bf 35be
000003c0: b24c 733c 3a62 41be 10c7 173d 4b71 45bd
000003d0: 562b 6ebd e0a1 93be 9b7a d93b 73e8 193d
000003e0: cdfd 62bc 68ea 8a3d 8914 52bd 5cb5 12be
000003f0: 0655 12bd 9bb7 cdbd 507c d83c f59f 283e

conv1.bias f4 [50]
0.0103605585 0.24077584 0.14279719 0.03228312 0.22519298 0.1621319 -0.014534272 0.06348741
-0.027634483 -1.2236654 0.14805168 0.21858093 0.12466872 0.11833744 -0.09053445 -0.3440378
-0.05082549 0.14466551 0.09197654 0.07148857 0.20590346 0.1627341 0.08443967 0.02195158
0.022823796 -0.0482672 0.06787704 -0.014789377 0.108893424 0.1826288 0.11909472 -0.047114424
0.16900472 -0.03478645 0.14392917 0.019696357 0.2799539 -1.5127215 0.033819154 0.008781975
0.16913752 0.13250864 0.039098445 -0.090351894 -0.06808287 0.15582411 0.036336746 0.07677999
-0.2715991 -0.032252125
00000000: 55bf 293c f18d 763e 6d39 123e 4e3b 043d
00000010: fd98 663e e805 263e 2821 6ebc b005 823d
00000020: b661 e2bc 11a1 9cbf dc9a 173e aed3 5f3e
00000030: 5052 ff3d e65a f23d 206a b9bd b925 b0be
00000040: 642e 50bd 3223 143e 325e bc3d 9968 923d
00000050: 5bd8 523e c5a3 263e b5ee ac3d cdd3 b33c
00000060: f8f8 ba3c d4b3 45bd 1e03 8b3d 254f 72bc
00000070: 8403 df3d 0b03 3b3e efe7 f33d 0efb 40bd
00000080: 930f 2d3e 3d7c 0ebd 2b62 133e 415a a13c
00000090: 1e56 8f3e dca0 c1bf f485 0a3d 46e2 0f3c
000000a0: 6332 2d3e 58b0 073e b125 203d 6a0a b9bd
000000b0: 086f 8bbd 5b90 1f3e d7d5 143d d43e 9d3d
000000c0: 0a0f 8bbe ce1a 04bd

conv2.weight f4 [16, 50, 5, 5]
-0.15607554 -0.17806953 -0.15384656 0.039210897 0.037238274 -0.03992678 -0.07055218 -0.12979062
-0.009409591 0.041956473 0.03282049 -0.003861696 -0.120189145 0.05200309 0.006995113 0.08611906
-0.0068704057 0.01922511 0.04668057 0.06315894 -0.041724384 0.01310898 0.057592113 0.02745687
0.0070684645 0.15445937 0.12999578 0.14905305 0.056524307 0.031089285 -0.006102732 -0.011088089
-0.03561881 0.035804287 0.03953082 -0.027752608 -0.031599715 -0.08802752 -0.013198567 0.048509046
0.0007542754 -0.06042501 -0.12794857 -0.053093422 -0.09723624 0.058026504 -0.0039983015 -0.039242644
-0.047868285 -0.108196676 -0.0043633115 -0.09795563 -0.021248044 0.0014396757 0.1267698 -0.0103601515
-0.03683944 0.039442867 0.0778345 0.06591521 -0.0016693053 -0.04431793 -0.021534469 -0.0034552065
0.00072963507 -0.004724193 0.009544551 -0.04523526 0.02870474 0.03815746 0.017497506 -0.05257513
-0.04136584 0.057318922 0.038413458 -0.09411458 0.011042441 -0.017926766 0.008428314 -0.036298063
0.022134291 0.013047891 0.09091396 0.03451243 0.04696076 0.012138059 0.050260782 0.042581372
0.043812238 0.014805991 0.009333946 -0.011569023 -0.057712942 -0.018724792 0.012264519 -0.02496821
0.028137108 -0.012717702 0.078712866 0.021726156 -0.052688364 0.010050053 0.14525695 0.11520319
0.05876161 0.005221747 -0.005303372 0.01706354 -0.04436042 -0.012202281 0.0054645077 -0.006958546
0.052739758 -0.05554978 -0.059735946 -0.036936585 -0.027462592 -0.057912055 -0.028958231 -0.07326722
0.013287422 0.022361338 -0.040056404 -0.031903677 -0.04875064 0.04106941 0.0009286247 -0.08177947
-0.17821464 -0.15356565 0.042258464 -0.029456234 -0.017449278 -0.033451658 -0.0144417 0.03010247
0.07660828 0.00096019125 0.030367056 0.068050094 0.11214868 0.01855138 0.0059213378 0.0014094827
0.081625715 0.045078848 0.061046693 0.0140636815 0.11227329 0.06807438 -0.09022731 0.0161982
-0.1815462 -0.21458533 -0.17639628 -0.0937026 0.07437309 0.10461335 0.053798813 -0.07397025
-0.046289194 0.14193387 0.09424304 0.109664336 -0.022640748 -0.012821552 0.06822637 0.11464457
0.12337984 0.034093734 -0.062840976 0.08060512 0.16127346 0.07247211 0.18676382 -0.10903784
-0.0552397 -0.100135796 -0.12321075 -0.07625312 -0.106478 -0.0038407096 -0.079581164 -0.06298848
0.09679794 0.0031616583 -0.010015106 -0.03429302 0.004885525 0.020657744 0.07159023 0.03244156
0.0051677525 0.0043164277 0.029417029 0.018837363 0.10607059 0.0015544192 -0.037408564 0.003853636
-0.042813785 -0.053440988 -0.17141803 -0.13740182 -0.0177659 -0.019777587 -0.036899462 -0.06318871
0.012192175 0.008775251 0.034445707 -0.037620004 -0.051597863 -0.007688219 0.04092386 0.011583784
-0.008182075 -0.057296894 0.01081827 0.06777186 0.024136689 -0.005666725 -0.0050721094 0.009728839
0.009634757 0.010506354 -0.07753482 -0.16378887 -0.18801953 -0.10364697 0.017900944 -0.014812653
-0.07357472 -0.048876222 -0.028151121 -0.030339569 -0.006714876 -0.040251557 -0.068320766 -0.012280974
-0.007874631 -0.054105334 -0.05168067 -0.048048194 -0.037407596 -0.0110087 -0.018943006 -0.018468289
-0.018099625 -0.009547966 0.033900358 0.121496506 0.077603124 0.061294746 -0.10694131 0.031396423
00000000: 44d2 1fbe dc57 36be f489 1dbe 9b9b 203d
00000010: 2987 183d 438a 23bd a97d 90bd d5e7 04be
00000020: af2a 1abc 8dda 2b3d c76e 063d 8214 7dbb
00000030: ba25 f6bd 3101 553d 4337 e53b 315f b03d
00000040: 2421 e1bb fa7d 9d3c 2034 3f3d 7959 813d
00000050: 30e7 2abd 0cc7 563c b5e5 6b3d 3bed e03c
00000060: 949e e73b 992a 1e3e 9d1d 053e 5da1 183e
00000070: 0886 673d f5ae fe3c 6df9 c7bb d1aa 35bc
00000080: 08e5 11bd 84a7 123d 12eb 213d 7059 e3bc
00000090: b46e 01bd c647 b4bd cd3e 58bc 6cb1 463d
000000a0: 91ba 453a 3780 77bd f304 03be 7d78 59bd
000000b0: cb23 c7bd 33ad 6d3d 2f04 83bb e5bc 20bd
000000c0: 8911 44bd 3896 ddbd 1cfa 8ebb f69c c8bd
000000d0: 6110 aebc 80b3 bc3a f1cf 013e a0bd 29bc
000000e0: f4e4 16bd d88e 213d b267 9f3d 8efe 863d
000000f0: 97cc daba b886 35bd 0e69 b0bc bf70 62bb
00000100: fb44 3f3a 67cd 9abb c060 1c3c 9c48 39bd
00000110: 3426 eb3c ff4a 1c3d ee56 8f3c 0559 57bd
00000120: 3a6f 29bd 3fc7 6a3d 6e57 1d3d 25bf c0bd
00000130: 5beb 343c 27db 92bc e916 0a3c 47ad 14bd
00000140: f952 b53c d2c6 553c 1931 ba3d e85c 0d3d
00000150: ed59 403d b6de 463c 40de 4d3d ce69 2e3d
00000160: 7674 333d d494 723c 68ed 183c 008c 3dbc
00000170: 6864 6cbd bc64 99bc 1ff1 483c 228a ccbc
00000180: cb7f e63c e95d 50bc 3634 a13d 0dfb b13c
00000190: c1cf 57bd faa8 243c 3dbe 143e a6ef eb3d
000001a0: 04b0 703d 301b ab3b e9c7 adbb d6c8 8b3c
000001b0: 46b3 35bd 13ec 47bc 9d0f b33b 8404 e4bb
000001c0: a505 583d 2b88 63bd aead 74bd d14a 17bd
000001d0: 3bf9 e0bc 3135 6dbd d039 edbc 200d 96bd
000001e0: 7db3 593c 202f b73c 2f12 24bd 6ead 02bd
000001f0: c0ae 47bd 6638 283d f36e 733a ff7b a7bd
00000200: e67d 36be 5040 1dbe 3617 2d3d 334e f1bc
00000210: caf1 8ebc 9b04 09bd e19c 6cbc 7599 f63c
00000220: cde4 9c3d 58b5 7b3a 55c4 f83c d95d 8b3d
00000230: 35ae e53d 10f9 973c c807 c23b 64be b83a
00000240: 622b a73d 99a4 383d 190c 7a3d 5b6b 663c
00000250: 8aef e53d 956a 8b3d 19c9 b8bd 16b2 843c
00000260: 3fe7 39be 42bc 5bbe 3aa1 34be 26e7 bfbd
00000270: eb50 983d 863f d63d 255c 5c3d b77d 97bd
00000280: bd99 3dbd 1d57 113e 7f02 c13d b297 e03d
00000290: 1779 b9bc 7d11 52bc 44ba 8b3d c6ca ea3d
000002a0: 92ae fc3d dfa5 0b3d c5b2 80bd 4c14 a53d
000002b0: df24 253e 426c 943d 043f 3f3e 3b4f dfbd
000002c0: 0643 62bd ff13 cdbd eb55 fcbd 992a 9cbd
000002d0: 2311 dabd 6ab4 7bbb 73fb a2bd 1b00 81bd
000002e0: 003e c63d d333 4f3b 6616 24bc d676 0cbd
000002f0: c116 a03b 6e3a a93c e69d 923d 71e1 043d
00000300: 4056 a93b d270 8d3b fbfb f03c d050 9a3c
00000310: 8a3b d93d a7bd cb3a b939 19bd 498d 7c3b
00000320: 825d 2fbd f0e4 5abd 3588 2fbe 10b3 0cbe
00000330: cb89 91bc 9b04 a2bc e423 17bd 1569 81bd
00000340: b0c1 473c 12c6 0f3c f116 0d3d 6f17 1abd
00000350: 4858 53bd 75ed fbbb c79f 273d e9c9 3d3c
00000360: 1c0e 06bc 26b0 6abd 1d3f 313c f9cb 8a3d
00000370: 4eba c53c efaf b9bb f033 a6bb b565 1f3c
00000380: 1adb 1d3c d822 2c3c 93ca 9ebd 45b8 27be
00000390: 3188 40be dd44 d4bd 00a5 923c c5b0 72bc
000003a0: 58ae 96bd 6f32 48bd 2e9d e6bc b08a f8bc
000003b0: 7608 dcbb d1de 24bd c2eb 8bbd 2336 49bc
000003c0: 9904 01bc 8e9d 5dbd 1caf 53bd 2fce 44bd
000003d0: b538 19bd d65d 34bc 5d2e 9bbc cf4a 97bc
000003e0: aa45 94bc 126f 1cbc 1adb 0a3d 29d3 f83d
000003f0: 63ee 9e3d 3310 7b3d 0c04 dbbd 8999 003d

conv2.bias f4 [16]
-0.6380749 0.011026368 -0.15502317 1.1301247 -0.05476729 -0.5270174 -0.5247349 0.013380444
-0.36717853 -1.3292361 -0.1363143 -0.85261536 0.1309642 2.519269 -1.2052598 -0.075629465
00000000: e058 23bf f0a7 343c 65be 1ebe eda7 903f
00000010: aa53 60bd 9dea 06bf 0755 06bf a639 5b3c
00000020: d3fe bbbe 6924 aabf fa95 0bbe 0045 5abf
00000030: 7b1b 063e b43b 2140 f445 9abf 9fe3 9abd

fc1.weight f4 [120, 400]
0.12442046 -0.058565218 0.04506077 -0.039909374 -0.050867233 -0.043332893 0.0027854193 -0.00026436348
0.011116012 0.008518905 -0.014785274 -0.064489365 -0.013779722 -0.011428361 -0.040666528 -0.054866526
-0.04519805 -0.038843904 -0.029366374 0.001133299 -0.025180897 0.011831724 -0.033993836 -0.016580276
-0.0015778886 -0.029761018 0.17465016 0.014206344 -0.060874242 -0.011457017 0.009812349 0.035332985
-0.090116866 -0.051194087 -0.0047084875 0.095791645 -0.045477822 -0.09649921 -0.04439368 0.083325826
0.008951429 0.0054779625 -0.07085791 0.012764298 0.11934282 -0.032164026 -0.04954109 0.004662067
0.104359 0.025749417 0.03495378 0.06369414 -0.013898254 -0.023009738 -0.015636709 -0.013265818
-0.0057225586 -0.04621593 -0.049547832 -0.083748415 -0.014737586 0.063346095 0.0026535878 -0.05124959
-0.13767354 -0.02452894 -0.051222906 -0.04458096 -0.022335062 -0.022190263 -0.043045998 0.06507655
-0.03997111 -0.08638198 0.07271246 -0.03709906 -0.0029659085 -0.020082772 0.03227889 -0.0013504652
0.011457312 0.06500018 0.07950034 0.04834596 0.005852696 0.044797342 0.060821485 0.078299806
0.009830728 -0.0039607924 0.031116175 0.0065123504 0.06842881 -0.006797464 0.06382304 0.013812299
0.04142039 0.052038588 -0.011526562 0.009781982 -0.01234109 -0.039183628 -0.022045871 0.03190895
-0.02218798 -0.0179715 0.010468763 0.018953282 0.014324192 -0.02597273 -0.0356968 0.0026972422
0.033009138 0.033627607 -0.03544077 -0.027388377 -0.020429134 0.01057512 0.016984133 -0.04729509
-0.009381541 -0.014502057 0.02401021 0.04383114 -0.04087857 -0.0048631774 -0.08914474 0.021652663
0.113676496 0.08761531 -0.02213155 0.026167993 0.03762824 0.06431959 0.051139496 0.05241965
0.09986536 0.04088828 -0.02292098 0.019309126 0.07927772 0.04215192 0.10192544 -0.084524535
-0.014308879 0.08249981 0.034380138 -0.07679705 -0.062134624 -0.018331716 0.10866049 0.09814289
-0.020648036 -0.11147211 -0.04361798 0.09471272 0.060362633 -0.10588915 -0.041710053 -0.042027872
-0.018112205 -0.041222245 -0.12158625 -0.029310351 -0.057539646 -0.06373862 -0.096765466 -0.10969421
-0.05786832 -0.015909035 -0.11813651 -0.099706 -0.100736886 0.046678554 0.025270792 -0.04081471
-0.03767995 0.025713354 0.01637472 -0.028099403 -0.04328833 -0.036810867 -0.0088480115 0.010135353
0.0051482487 0.04649234 -0.025785498 -0.027478626 -0.0149478065 0.01693319 0.0406919 0.029144598
-0.041065425 -0.040257327 -0.0008747725 0.02765333 0.044877138 0.007926063 0.016488187 -0.011919799
0.0864231 -0.012663032 0.086065955 -0.04549422 -0.0774311 -0.0011305877 -0.08793627 -0.15541764
-0.08918998 -0.11459364 -0.13768968 -0.12723999 -0.11010734 -0.09093745 -0.0023724262 -0.004342503
-0.07539406 -0.11911283 -0.059105728 -0.04866122 -0.051410355 -0.08009807 -0.098231725 -0.122874506
-0.0945545 0.040220723 0.074900225 -0.08635665 -0.051405985 -0.13970977 -0.018811157 0.021211253
-0.077561006 -0.04281252 -0.09402551 -0.09762994 -0.04709851 -0.050589375 -0.021313759 -0.06548872
-0.049434002 -0.06050535 -0.03489624 -0.013746758 -0.07565792 -0.05525491 0.1604262 0.07408884
0.0042573027 -0.077863745 -0.024858078 0.06844898 0.055175964 0.11732451 0.17578092 0.04193019
00000000: 27d0 fe3d 15e2 6fbd a491 383d 0378 23bd
00000010: 295a 50bd d57d 31bd 958b 363b 449a 8ab9
00000020: ef1f 363c e192 0b3c ef3d 72bc 0013 84bd
00000030: 58c4 61bc 053e 3bbc f291 26bd b9bb 60bd
00000040: 9721 39bd c91a 1fbd c091 f0bc 348b 943a
00000050: 2b48 cebc d9d9 413c 1f3d 0bbd 5cd3 87bc
00000060: 28d1 ceba 61cd f3bc 7ed7 323e bac1 683c
00000070: 4557 79bd 36b6 3bbc fac3 203c 52b9 103d
00000080: 318f b8bd e4b0 51bd a849 9abb 692e c43d
00000090: f446 3abd 61a1 c5bd 26d6 35bd bba6 aa3d
000000a0: 04a9 123c 7b80 b33b f41d 91bd 5921 513c
000000b0: 026a f43d 6dbe 03bd 99eb 4abd 41c4 983b
000000c0: 2cba d53d 71f0 d23c b22b 0f3d 1372 823d
000000d0: 81b5 63bc eb7e bcbc 8e18 80bc e058 59bc
000000e0: 4d84 bbbb ea4c 3dbd abf2 4abd 4a84 abbd
000000f0: ea75 71bc 99bb 813d d1e7 2d3b 17eb 51bd
00000100: 4bfa 0cbe eaf0 c8bc 1ccf 51bd 869a 36bd
00000110: 05f8 b6bc 5bc8 b5bc 0051 30bd db46 853d
00000120: bfb8 23bd 09e9 b0bd 45ea 943d 2ff5 17bd
00000130: b05f 42bb a084 a4bc df36 043d 1802 b1ba
00000140: 73b7 3b3c d01e 853d 13d1 a23d 6a06 463d
00000150: f9c7 bf3b 6b7d 373d f31f 793d a65b a03d
00000160: 1011 213c 89c9 81bb 59e7 fe3c 8e65 d53b
00000170: 6724 8c3d 43bd debb a7b5 823d fb4c 623c
00000180: 6da8 293d 6a26 553d e8d9 3cbc 9b44 203c
00000190: 4832 4abc 037f 20bd 8b99 b4bc f6b2 023d
000001a0: 91c3 b5bc f838 93bc 2d85 2b3c ea43 9b3c
000001b0: 04b0 6a3c c3c4 d4bc cf36 12bd 37c4 303b
000001c0: 9734 073d 1abd 093d 572a 11bd 975d e0bc
000001d0: 005b a7bc 4543 2d3c 4f22 8b3c 7fb8 41bd
000001e0: 09b5 19bc 099a 6dbc 0fb1 c43c 4888 333d
000001f0: 4a70 27bd 4a5b 9fbb 8491 b6bd ed60 b13c
00000200: 39cf e83d a86f b33d 394d b5bc 425e d63c
00000210: 1220 1a3d fdb9 833d a677 513d fdb5 563d
00000220: 3686 cc3d 787a 273d c7c4 bbbc 2c2e 9e3c
00000230: 5b5c a23d 7ea7 2c3d 49be d03d 331b adbd
00000240: ca6f 6abc a9f5 a83d 30d2 0c3d c647 9dbd
00000250: e080 7ebd 652c 96bc 6489 de3d 24ff c83d
00000260: 1226 a9bc 7d4b e4bd c4a8 32bd bef8 c13d
00000270: cf3e 773d 69dc d8bd 29d8 2abd 6b25 2cbd
00000280: 0c60 94bc a8d8 28bd 3602 f9bd 431c f0bc
00000290: b1ae 6bbd 6589 82bd f92c c6bd 5ca7 e0bd
000002a0: 5507 6dbd aa53 82bc 8ef1 f1bd a932 ccbd
000002b0: 244f cebd 0332 3f3d b104 cf3c 532d 27bd
000002c0: 4b56 1abd d0a4 d23c 4724 863c b830 e6bc
000002d0: 1b4f 31bd fec6 16bd 40f7 10bc c00e 263c
000002e0: a4b2 a83b c06e 3e3d 1c3c d3bc db1a e1bc
000002f0: a5e7 74bc 79b7 8a3c 8dac 263d a7c0 ee3c
00000300: 3834 28bd dee4 24bd fd50 65ba 3c89 e23c
00000310: 17d1 373d 51dc 013c 3c12 873c 434b 43bc
00000320: 98fe b03d 9b78 4fbc 5943 b03d 2658 3abd
00000330: 3294 9ebd 3a30 94ba ee17 b4bd cd25 1fbe
00000340: 3ca9 b6bd 12b0 eabd 86fe 0cbe 334b 02be
00000350: f57f e1bd 6a3d babd b57a 1bbb 8e4b 8ebb
00000360: 3368 9abd 6df1 f3bd d918 72bd fd50 47bd
00000370: aa93 52bd 750a a4bd b72d c9bd a1a5 fbbd
00000380: caa5 c1bd 7cbe 243d 4a65 993d c1db b0bd
00000390: 158f 52bd 1410 0fbe db19 9abc 39c3 ad3c
000003a0: 4ed8 9ebd 2e5c 2fbd 7290 c0bd 35f2 c7bd
000003b0: 5eea 40bd ce36 4fbd 319a aebc f31e 86bd
000003c0: 4f7b 4abd 75d4 77bd 5cef 0ebd 153a 61bc
000003d0: 8af2 9abd f952 62bd c446 243e e4bb 973d
000003e0: d880 8b3b 0777 9fbd 2ba3 cbbc fb2e 8c3d
000003f0: 3100 623d d547 f03d eaff 333e febe 2b3d

fc1.bias f4 [120]
0.011829677 -0.025003605 -0.01871034 -0.05933292 0.0028864658 -0.013545272 -0.0059364866 0.051706698
-0.07107511 -0.0076319203 -0.018227557 0.0454053 -0.001629482 -0.030113641 0.031149251 0.19215609
-0.045685396 -0.023265714 -0.10717529 -0.08991854 0.029392181 -0.012924341 0.07177349 0.084003754
-0.034432042 -0.019033266 0.04721946 0.015423222 -0.0035594404 -0.037594046 0.003549141 0.030390758
0.047549974 -0.049475532 -0.0013450454 -0.054082412 -0.001678408 0.0140694445 0.015286482 0.033651806
-0.020157104 0.07604837 0.027316961 -0.025850216 0.012766574 0.01962404 0.083095014 -0.115030624
-0.024593536 0.0008184074 0.030986283 -0.07577881 -0.03476896 -0.0049595097 0.0071256687 -0.0064826137
0.057603903 0.06809295 0.049675208 0.0615833 0.043679878 -0.117670394 -0.00535803 -0.007161635
-0.13411686 -0.010713117 0.13158272 -0.020606471 -0.03466554 -0.06889398 -0.038441733 0.07616122
-0.024788655 -0.001324561 -0.046876647 0.08092586 -0.06437482 0.07165916 -0.036054857 0.027443
-0.03371007 -0.024221988 0.054062657 0.04629175 -0.051218454 -0.038205333 0.016887922 0.012916426
0.05609603 -0.11946478 0.002688718 0.029157748 0.05651706 0.0058519416 0.1369611 -0.03909848
-0.019153092 0.066327624 0.10879087 0.11673415 0.0057121487 -0.009095749 0.024637915 0.01177447
-0.040329788 -0.0294357 0.0734051 -0.017754376 0.04491808 -0.05971879 0.19689487 0.02548263
-0.06766111 0.025548493 -0.18766786 -0.13622707 0.010322494 0.024235988 0.07525636 -0.011987707
00000000: 43d1 413c 5cd4 ccbc 6d46 99bc 1307 73bd
00000010: dc2a 3d3b fdec 5dbc dc86 c2bb 67ca 533d
00000020: d48f 91bd 3015 fabb f551 95bc e8fa 393d
00000030: 5894 d5ba e2b0 f6bc b72c ff3c 91c4 443e
00000040: 9c20 3bbd bd97 bebc b87e dbbd 3627 b8bd
00000050: dfc7 f03c 9dc0 53bc fbfd 923d 290a ac3d
00000060: 9d08 0dbd a7eb 9bbc 3169 413d afb1 7c3c
00000070: 8045 69bb 37fc 19bd b598 683b 0af6 f83c
00000080: c3c3 423d dba6 4abd 3c4c b0ba 8585 5dbd
00000090: 07fe dbba 8783 663c 2774 7a3c 7ad6 093d
000000a0: 8320 a5bc 3fbf 9b3d d2c7 df3c d5c3 d3bc
000000b0: e42a 513c 98c2 a03c b82d aa3d 2d95 ebbd
000000c0: 6278 c9bc 648a 563a f2d6 fd3c ec31 9bbd
000000d0: e669 0ebd 6283 a2bb 717e e93b 1b6c d4bb
000000e0: 12f2 6b3d 5174 8b3d 3b78 4b3d c53e 7c3d
000000f0: ace9 323d 2dfd f0bd 6a92 afbb 26ac eabb
00000100: ee55 09be 1286 2fbc 9fbd 063e e7ce a8bc
00000110: 74fd 0dbd 4918 8dbd 1475 1dbd 6afa 9b3d
00000120: 9411 cbbc e49c adba ba01 40bd 75bc a53d
00000130: f2d6 83bd 0ac2 923d 42ae 13bd 24d0 e03c
00000140: 9213 0abd 316d c6bc ce70 5d3d 6b9c 3d3d
00000150: 71ca 51bd 327d 1cbd 8a58 8a3c 6b9f 533c
00000160: f3c4 653d f3a9 f4bd 3435 303b 3bdc ee3c
00000170: 6f7e 673d a5c1 bf3b 883f 0c3e ba25 20bd
00000180: f2e6 9cbc c7d6 873d bfcd de3d 5012 ef3d
00000190: fa2c bb3b 5606 15bc 74d5 c93c b5e9 403c
000001a0: d930 25bd 2323 f1bc 6a55 963d a071 91bc
000001b0: 05fc 373d b19b 74bd cf9e 493e f3c0 d03c
000001c0: e891 8abd 134b d13c 012c 40be 1c7f 0bbe
000001d0: ae1f 293c 8d8a c63c 0220 9a3d 1668 44bc

fc2.weight f4 [82, 120]
-0.0866184 -0.24396269 -0.1010061 0.22353691 -0.15465863 0.0034688392 0.02408907 -0.06747134
-0.076573394 -0.012973739 0.0701298 -0.058704525 -0.0319361 -0.04167705 -0.17248507 0.34395742
-0.02059179 -0.078690484 -0.090544924 -0.13947709 0.33244163 -0.14588594 -0.076921344 -0.061421927
-0.18236515 0.044401545 -0.10706208 -0.03899973 0.050411634 -0.23128457 -0.056870993 -0.06784406
-0.09439707 -0.02757898 -0.23994388 -0.12439096 -0.028603252 0.07490212 0.2166145 0.030572392
-0.046753548 0.4318506 0.029260388 0.1505977 -0.06755138 0.01100032 -0.103878126 -0.10465557
-0.07001233 -0.18239227 -0.05879999 -0.23546427 -0.39754426 -0.029530548 -0.027422529 -0.17234373
0.027247084 -0.28481838 0.02528087 0.014937062 -0.102609664 -0.2565738 -0.08036572 0.027987119
0.013480409 -0.10054209 0.14828974 -0.34477022 -0.106793635 0.32417896 -0.08823651 -0.04945201
-0.15748408 -0.13524134 -0.0265743 0.3314134 -0.16623718 -0.14324053 0.04812979 0.07705702
0.3386234 -0.20211644 0.20679519 0.25485763 -0.017392123 0.01828809 0.027876075 -0.016729621
0.31725466 -0.1583199 -0.12317765 0.071522065 0.28961506 -0.13153613 0.28968936 0.048263505
-0.16468117 0.043757986 -0.18993205 0.693347 -0.059828762 -0.039148424 0.10574218 -0.042946715
0.054301586 0.09350543 -0.099628806 0.099529974 0.06028109 0.056986853 0.035908543 -0.11859937
-0.13710524 -0.09976342 -0.023726229 -0.091308884 0.016740877 0.35537323 -0.1209318 0.025582043
0.061697897 -0.06203645 0.17259859 -0.21692497 -0.19210772 0.06985512 0.0003670325 0.055457644
-0.024788411 0.14251883 0.10958193 0.076960385 0.22292227 -0.060822587 0.3869739 0.36359096
-0.011677391 0.3358442 -0.20422103 0.28413516 0.3276312 -0.033936642 0.21957064 -0.02049563
-0.12794462 -0.39674538 -0.02545433 -0.21418539 0.023382608 0.046354618 0.019330228 0.18042378
0.039868657 -0.06533722 -0.0010104345 -0.07624669 -0.08498245 0.05805672 0.15055706 0.0026582438
0.12444268 -0.060708024 0.084527746 -0.042327538 -0.11157371 0.07082389 0.12034809 0.0056931768
-0.069448054 -0.22300428 -0.10382367 0.042214807 -0.19681151 0.03606562 0.11054236 0.11495466
-0.10963742 0.110668786 -0.102695934 0.059711758 -0.5221748 0.06778653 -0.008323804 -0.1149372
-0.15849176 -0.0069704927 0.115140714 0.14117114 0.08844159 -0.0087211635 0.14048184 -0.015271462
0.105954714 -0.24591021 -0.2549822 0.101366475 -0.053668715 -0.0810794 -0.06727205 0.06367624
0.27526024 0.047352098 -0.35894352 0.05955121 -0.10387083 -0.15308088 -0.0936429 -0.023858586
-0.19262397 -0.32262897 -0.20783304 0.1463125 0.3016544 0.08024162 0.24925587 0.05923683
-0.078789935 0.006285398 0.26338547 0.09269501 0.32305878 -0.37345463 -0.10262098 0.14707541
-0.061776925 -0.06424913 0.24593085 -0.09431603 -0.014364199 0.12596203 0.123300195 -0.22060467
-0.29316807 -0.05276562 0.079009205 -0.3101373 -0.0033388734 -0.007887401 0.11202096 0.22899853
0.15097985 0.15471806 -0.1896671 0.094361566 0.1982153 -0.15923814 0.03993219 0.04049575
0.021245686 -0.13733606 0.032623127 0.09922477 -0.07798319 -0.11950006 -0.15269656 0.2955708
00000000: fd64 b1bd 5bd1 79be 49dc cebd dce6 643e
00000010: d55e 1ebe 7755 633b 7156 c53c 6a2e 8abd
00000020: 83d2 9cbd ce8f 54bc 36a0 8f3d 2874 70bd
00000030: 6ecf 02bd 8eb5 2abd ed9f 30be 301b b03e
00000040: 1db0 a8bc 7a28 a1bd 9e6f b9bd 15d3 0ebe
00000050: ca35 aa3e 2063 15be f088 9dbd 8f95 7bbd
00000060: eebd 3abe 65de 353d 5d43 dbbd 2ebe 1fbd
00000070: 6e7c 4e3d ddd5 6cbe 8ff1 68bd d4f1 8abd
00000080: 4053 c1bd 50ed e1bc d9b3 75be b0c0 febd
00000090: 5e51 eabc 4866 993d 31d0 5d3e f472 fa3c
000000a0: a680 3fbd 861b dd3e 7bb3 ef3c 4936 1a3e
000000b0: 6158 8abd b03a 343c 0ebe d4bd a955 d6bd
000000c0: a062 8fbd 0ac5 3abe 42d8 70bd 8c1d 71be
000000d0: ec8a cbbe 0cea f1bc 36a5 e0bc e07a 30be
000000e0: 4735 df3c b7d3 91be d419 cf3c 94ba 743c
000000f0: 0425 d2bd a45d 83be c896 a4bd 3e45 e53c
00000100: efdc 5c3c 03e9 cdbd 44d9 173e b985 b0be
00000110: 9fb6 dabd c9fa a53e 58b5 b4bd 318e 4abd
00000120: 8243 21be b57c 0abe 59b2 d9bc 04af a93e
00000130: 143a 2abe a5ad 12be be23 453d 12d0 9d3d
00000140: 0c60 ad3e 9df7 4ebe 1ec2 533e b37c 823e
00000150: ed79 8ebc e8d0 953c 5e5c e43c 8f0c 89bc
00000160: 346f a23e 9d1e 22be 9044 fcbd 297a 923d
00000170: 6d48 943e 68b1 06be 2a52 943e f4af 453d
00000180: 2ea2 28be 933b 333d 8c7d 42be 307f 313f
00000190: 010f 75bd 195a 20bd 5b8f d83d e5e8 2fbd
000001a0: 576b 5e3d c67f bf3d 300a ccbd 5fd6 cb3d
000001b0: 4ee9 763d 0c6b 693d d614 133d 3ae4 f2bd
000001c0: 5165 0cbe c450 ccbd 825d c2bc 2700 bbbd
000001d0: 2a24 893c 7bf3 b53e 17ab f7bd 6f91 d13c
000001e0: efb6 7c3d ef19 7ebd afbd 303e 9421 5ebe
000001f0: e3b7 44be 3310 8f3d 456e c039 8e27 633d
00000200: 1111 cbbc 75f0 113e 7e6c e03d 689d 9d3d
00000210: bc45 643e 1b21 79bd 7121 c63e 9828 ba3e
00000220: 8752 3fbc c5f3 ab3e 511f 51be 2a7a 913e
00000230: 47bf a73e 2601 0bbd 20d7 603e 74e6 a7bc
00000240: ea03 03be 3622 cbbe 9985 d0bc 6a53 5bbe
00000250: e28c bf3c 57de 3d3d 6d5a 9e3c 03c1 383e
00000260: 514d 233d 85cf 85bd 8e70 84ba 3927 9cbd
00000270: 470b aebd e2cc 6d3d a12b 1a3e ee35 2e3b
00000280: cedb fe3d faa8 78bd e21c ad3d a45f 2dbd
00000290: c280 e4bd 1e0c 913d 0f79 f63d d48d ba3b
000002a0: c83a 8ebd 3c5b 64be 81a1 d4bd 6fe9 2c3d
000002b0: f588 49be 8bb9 133d 0864 e23d 596d eb3d
000002c0: 9589 e0bd 51a6 e23d 3f52 d2bd 5194 743d
000002d0: 3fad 05bf aad3 8a3d 9060 08bc 3264 ebbd
000002e0: aa4b 22be bb68 e4bb e5ce eb3d 2b8f 103e
000002f0: dd20 b53d 36e3 0ebc 79da 0f3e 2735 7abc
00000300: c9fe d83d e3cf 7bbe 078d 82be 3a99 cf3d
00000310: bad3 5bbd f50c a6bd eec5 89bd b068 823d
00000320: e9ee 8c3e 46f4 413d 72c7 b7be f8eb 733d
00000330: 3bba d4bd 3cc1 1cbe d9c7 bfbd 1573 c3bc
00000340: 383f 45be a02f a5be 2fd2 54be f2d2 153e
00000350: 7272 9a3e b855 a43d ee3c 7f3e 51a2 723d
00000360: 9e5c a1bd bdf5 cd3b 76da 863e e2d6 bd3d
00000370: f667 a53e 7235 bfbe f32a d2bd f09a 163e
00000380: cd09 7dbd 0c95 83bd 4cd5 7b3e c328 c1bd
00000390: d157 6bbc 31fc 003e d084 fc3d 31e6 61be
000003a0: 201a 96be c320 58bd 94cf a13d 51ca 9ebe
000003b0: 00d1 5abb 283a 01bc 3f6b e53d 977e 6a3e
000003c0: 769a 1a3e 696e 1e3e 1838 42be a340 c13d
000003d0: f4f8 4a3e 530f 23be f08f 233d dfde 253d
000003e0: 6f0b ae3c d3a1 0cbe d49f 053d 5b36 cb3d
000003f0: a7b5 9fbd 73bc f4bd 7d5c 1cbe 0e55 973e

fc2.bias f4 [82]
-0.05397744 0.031359173 0.052144464 0.087929115 0.03684063 -0.09265401 0.12108045 0.49560317
0.3099252 0.06046273 0.108187236 -0.09846505 0.016752513 -0.10182661 0.12576014 -0.051600054
-0.072291665 -0.20808952 -0.013818401 0.06059045 -0.18074487 0.19238107 -0.23729078 0.2761241
-0.1358417 0.063663065 -0.1282415 0.36785167 -0.0037399917 -0.09237168 0.14493477 0.02503892
-0.086181246 -0.04590359 -0.031780306 -0.113588065 0.051591363 0.07092234 0.013063975 -0.039562576
-0.057821747 0.0047422247 -0.13241133 -0.013644753 -0.082839735 0.08565363 -0.020933777 -0.12984887
-0.06489563 0.13469714 -0.14488493 0.07711975 -0.08942735 0.040967807 -0.08241539 -0.20540538
-0.16557261 -0.014792346 -0.03712635 -0.008579263 -0.029531991 -0.15522766 -0.037950113 0.03220771
-0.10688918 -0.039021306 -0.10066117 -0.020472966 -0.08858471 -0.06533431 0.024749288 -0.10374879
-0.11239605 0.01240157 0.22136961 0.0278243 0.021189999 -0.06690201 0.16622095 0.03329496
-0.056355804 0.008004441
00000000: 7317 5dbd 7a72 003d 6f95 553d 2e14 b43d
00000010: 33e6 163d 63c1 bdbd 07f9 f73d b3bf fd3e
00000020: 84ae 9e3e c4a7 773d 4591 dd3d 0ba8 c9bd
00000030: 913c 893c 788a d0bd 44c7 003e 945a 53bd
00000040: a70d 94bd 6b15 55be 9366 62bc b12d 783d
00000050: 2f15 39be 8bff 443e 5bfc 72be 2360 8d3e
00000060: 161a 0bbe c861 823d bd51 03be 0e57 bc3e
00000070: a61a 75bb 5d2d bdbd c869 143e 6c1e cd3c
00000080: cb7f b0bd 6705 3cbd 112c 02bd dca0 e8bd
00000090: 7751 533d bb3f 913d 480a 563c 5e0c 22bd
000000a0: 7fd6 6cbd aa64 9b3b d696 07be 3e8e 5fbc
000000b0: e1a7 a9bd 2c6b af3d 507d abbc 1af7 04be
000000c0: 00e8 84bd 0cee 093e b75c 14be f6f0 9d3d
000000d0: b025 b7bd dccd 273d 66c9 a8bd ca55 52be
000000e0: de8b 29be 995b 72bc cd11 18bd 0a90 0cbc
000000f0: 13ed f1bc 00f4 1ebe 9471 1bbd 3bec 033d
00000100: b7e8 dabd ced4 1fbd 7227 cebd ecb6 a7bc
00000110: e76b b5bd ffcd 85bd 05bf ca3c 3f7a d4bd
00000120: e62f e6bd f42f 4b3c b7ae 623e c9ef e33c
00000130: a696 ad3c ec03 89bd d335 2a3e 4c60 083d
00000140: 58d5 66bd 0f25 033c
