saved_model.pt (torch_old, 328792 bytes, 8 tensors)

conv1.weight f4 [50, 3, 5, 5]
00000000: 6968 bfbe 7a6e 25be 2213 8c3d 3af5 353e
00000010: 3283 853c 4bd6 b7bd 2259 9bbd 100f 093e
00000020: bcf3 193e 4871 94bc e041 5abd 4b56 4cbe
00000030: ff93 89be 58ef df3d 2ff2 e43d 4e8e 6b3e
00000040: b3fe 933e 7d8f 90be 94a9 6bbe 737b 3ebe
00000050: 817e b83d 162d 633e 3902 5cbd 9480 f4bd
00000060: 0937 a6be edcb 85be 94ee 08be 3abf 593e
00000070: ce57 133e 9460 1c3e ff4b 59be 33aa 59bd
00000080: 2bdd 6b3e 9610 133e ba20 f73a 6913 b13d
00000090: 2440 99be ee27 0abe a189 be3d 5d40 5e3c
000000a0: 461e 953e e0fa 913e 1517 7fbe 94d2 4cbe
000000b0: 4278 9fba 4fdf 193e 9229 143e 2476 6abd
000000c0: 31f3 21be b530 71be 244f bebe 978f dcbd
000000d0: 9107 033d e181 873d b8d6 c23d 5f86 70be
000000e0: 48e5 85be a457 0a3e 1027 3d3e dcfb 3e3d
000000f0: f858 bf3d 4bb4 69be b9c9 78be a41f 253e
00000100: 704a 093e 1bfd 033e b81a 503e 3c0b 75be
00000110: 5d1b c7be 9e2f acbd f20f e83d aad4 a43d
00000120: cd3d 08be eb71 69be 7cef 8dbe 5e8f 0b3e
00000130: 1145 07be 0070 b6be 7087 2ebe 804c 453d
00000140: 34e1 853e 33f8 34bd 1c4e 5f3d 8583 563e
00000150: e43c 77be 383e 833d fecb febc 04b0 0e3e
00000160: fd0b e4be 5448 b8bc d3b7 b4be d75a b33c
00000170: 8577 73be b4c8 29be f4f8 d73e 38b3 94be
00000180: 3f9e e5be fd84 823d 5ab9 143e bd64 a03e
00000190: 8ad5 4c3d aeb7 e4bd 8f3c 4abe afca 1abe
000001a0: 83be d23c e81f 853e a578 09bc 5a35 92bd
000001b0: d436 553e 0877 c0be b323 20bd 794a 043e
000001c0: f6b9 433e 5fbd e4be 58c7 97bd f27b babe
000001d0: 678f ea3d 34af 5dbe b823 6fbd 89d1 cc3e
000001e0: 6dd8 26be 3fab eebe 2e57 e33d 9897 213e
000001f0: 336e 9a3e e680 903c 18af 45be 12ef c7be
00000200: 43c9 63be 1807 e33d 5c8c 773e d2b6 613d
00000210: 343c 843d e759 243e 3d97 bebe 4466 85bd
00000220: 00ef 9b3c ea76 c9bb bdbb d5be 1ee8 0d3d
00000230: 5b9e 8ebe f09c 453e 40df c1be 6487 44be
00000240: c46c 813e 334a 13be 00b8 cbbe 142f c23d
00000250: 368f 003d faa7 903e 6651 98be e807 8dbd
00000260: 30df 863d 3d10 32be ec3c 49be 4147 08be
00000270: bf51 3b3e 8460 da3d 0062 8abd 8610 6bbd
00000280: 413d 63be 94d7 0a3e 3990 33bd 44e6 553d
00000290: 634f 873d 0451 8dbe 632c 4c3e 3d0f 91bd
000002a0: 27b8 35bd f38f c43c 1ec5 87be 6f38 8a3e
000002b0: 8497 eebd 8ebc 95bd d2c1 22bd d284 4fbe
000002c0: df58 413d 7ddb 873c 4bec 16be 62e4 36be
000002d0: 084b 89bd 96f5 6a3e 281c 263e 1a3d 38be
000002e0: 6b97 acbd 76d1 46be 7c16 943e 4987 2fbd
000002f0: a7a7 823d 2b47 bcbd 8a84 65bd 50fe 933e
00000300: 63f4 013e c8e0 a53c 6226 9cbd cdd4 c3be
00000310: f8f6 f73d 3185 5abe 3bc6 6b3c b609 48bd
00000320: addc 83be e508 663d af15 de3d 89c1 e9bc
00000330: 4dbd 85be dc89 67be da7c 073e 60fa 293e
00000340: c259 96bd 1952 473d 9b7d 70be 3fbd eb3d
00000350: 2346 37bd 554c 893d becc f8bc 67ee 7dbe
00000360: cac3 9a3e 7873 d73d 0b4b e0bd 593c 333d
00000370: 7e61 86be bf1f 4f3e 7d64 2bbb e97f 22be
00000380: 7177 943d 1645 893d df53 693d 9608 08bc
00000390: 53b3 c5bd 9a83 2dbe 5504 043e 963a 9b3d
000003a0: 2558 8bbd f3ef 23be 6aaa 02bd d563 e83d
000003b0: c00b 56bd 7ee8 eeba 9422 31be 5885 57be
000003c0: 5c7a 48bc e7ad 033d 38f2 09be a9ed a1be
000003d0: bf3b 2dbe 185e 0a3e dd22 7a3e b0f9 4cbd
000003e0: 9b4d 1c3c 6fad eabc 05d9 013e a764 93bd
000003f0: 317a b739 be88 eebd 4ec4 17be b0bc fb3d
-0.37384346 -0.16155425 0.06839587 0.17769328 0.01629791 -0.0897642 -0.0758536 0.13384652
0.15034384 -0.018120423 -0.05328548 -0.19954793 -0.26870725 0.10934323 0.11179005 0.23003504
0.28905258 -0.28234473 -0.23013908 -0.1860178 0.09008504 0.22185168 -0.053713057 -0.11938587
-0.32463863 -0.26132146 -0.1337226 0.21264353 0.14388964 0.15271217 -0.21220396 -0.05314083
0.23033588 0.14361796 0.0018854358 0.0864628 -0.29931748 -0.13491794 0.093035944 0.01356515
0.2912466 0.28511715 -0.24911149 -0.20002204 -0.0012166577 0.15026592 0.14468983 -0.057241574
-0.15815426 -0.23553737 -0.37169755 -0.10769575 0.031989638 0.06616569 0.095136106 -0.23488759
-0.2615149 0.13509995 0.18471932 0.04662691 0.09343141 -0.22822683 -0.24295701 0.16125351
0.13407302 0.12889521 0.20322692 -0.23930067 -0.38888064 -0.0840752 0.11331166 0.08048375
-0.13304825 -0.22797363 -0.27721775 0.13628909 -0.1320994 -0.35632324 -0.17043853 0.04816866
0.2614838 -0.044182014 0.05451785 0.20948608 -0.24144322 0.06408352 -0.03110313 0.13934332
-0.44540396 -0.022495426 -0.35296497 0.021893902 -0.23776062 -0.16580468 0.42182124 -0.29042983
-0.44847295 0.06373022 0.14523831 0.31326857 0.050008334 -0.111678466 -0.19749664 -0.1511638
0.025725609 0.26000905 -0.00839058 -0.07139082 0.20821697 -0.37590814 -0.039096545 0.12919034
0.19113907 -0.4467573 -0.07411069 -0.36422688 0.11453133 -0.21648866 -0.058383673 0.40003613
-0.16293497 -0.46615025 0.111006126 0.15780485 0.301622 0.017639589 -0.19305074 -0.39049584
-0.22244744 0.110853374 0.24174637 0.05510599 0.06456795 0.1604992 -0.3722476 -0.06513646
0.019034863 -0.006148209 -0.41744795 0.034645192 -0.2785519 0.19298148 -0.3786564 -0.19192272
0.25278294 -0.14383774 -0.39788818 0.09481636 0.031386577 0.28253156 -0.29749602 -0.068862736
0.065855384 -0.17389007 -0.19652146 -0.13308431 0.18292902 0.1066294 -0.06756973 -0.057388805
-0.22191335 0.13558799 -0.043838713 0.05222155 0.06606939 -0.27600873 0.19938807 -0.070829846
-0.044365074 0.023994422 -0.26517576 0.2699618 -0.11649993 -0.073113546 -0.039735623 -0.2026551
0.047203895 0.016584152 -0.14738576 -0.17860559 -0.06703764 0.22945246 0.16221678 -0.17992058
-0.08427318 -0.1941584 0.28923404 -0.042853627 0.063796334 -0.09193262 -0.056034602 0.28904963
0.12690882 0.020248786 -0.076245084 -0.38248292 0.121076524 -0.21339871 0.014390524 -0.048837386
-0.257543 0.056160826 0.108439796 -0.028534668 -0.26120988 -0.22611183 0.13231221 0.16599417
-0.07341339 0.04866228 -0.23485415 0.11510705 -0.044744622 0.06704012 -0.030371066 -0.24797975
0.302275 0.10520071 -0.10951813 0.043758724 -0.26246256 0.20226954 -0.0026152425 -0.15869106
0.07249344 0.0670263 0.05696475 -0.008302828 -0.09653344 -0.16944733 0.12892278 0.07579534
-0.068039216 -0.16009502 -0.0319008 0.113471664 -0.0522573 -0.0018227247 -0.17298347 -0.2104696
-0.012236204 0.032148268 -0.13471305 -0.31626633 -0.16917323 0.13512456 0.24427362 -0.050042808
0.009539987 -0.028647153 0.12680443 -0.07196932 0.0003499552 -0.11647175 -0.14820978 0.12291849

conv1.bias f4 [50]
00000000: e48c ff3d e944 d93e 971f 283e 6594 3c3d
00000010: e8eb 67be 9f54 c3bd 82b3 c1be e55b f03b
00000020: 9982 1f3e f565 323e db7a 5dbd b897 633c
00000030: 7e4e 0dbd c231 453e 9f68 273d 4441 1e3d
00000040: b8ed a53e b1d5 3cbf d742 2d3c ac72 2fbe
00000050: 874b 803e 96f1 ec3b 0045 a43d c425 59bf
00000060: ab42 863e 431c 803e 35e8 343d c116 0abe
00000070: 0c9a 9f3b 5ed6 d13e 72f2 093e 1bb3 19be
00000080: 312e 733d 3614 3e3d f268 a8be 2078 023d
00000090: 7f2f 11bd 0266 e4bd 0bd1 6d3e d840 923c
000000a0: b695 81be 9ec8 953d b363 b03e 318a 943e
000000b0: 1843 a33d 0a63 a93e ce83 373e c943 15be
000000c0: 7d27 553e be0e 013c
0.12478045 0.42435387 0.164183 0.046039958 -0.22648585 -0.095376246 -0.37832266 0.0073351734
0.15577163 0.17421706 -0.054072242 0.013891153 -0.034498684 0.19257262 0.04087126 0.03863646
0.32407928 -0.7376357 0.010575018 -0.17133588 0.25057623 0.0072309477 0.08020973 -0.8482325
0.2622274 0.25021562 0.044166762 -0.13485242 0.0048706587 0.40983862 0.13471392 -0.1500973
0.059370223 0.046405993 -0.32892567 0.03185284 -0.035445686 -0.11152269 0.23224275 0.017853186
-0.25309533 0.07313655 0.34451064 0.29011682 0.079717815 0.33083373 0.17921373 -0.14576639
0.20815845 0.00787705

conv2.weight f4 [16, 50, 5, 5]
00000000: 8622 d13d bc9f 293e 7760 013e 7639 713e
00000010: 7d66 ad3e 74c0 d83d 785f 6a3d cf00 46bc
00000020: e4e5 4dbd 0d40 5a3b 7cff 273e 5fd1 233d
00000030: 1ec4 ac3d 1d35 3e3e 6b79 813e 4e63 d93d
00000040: cda5 a9bd 0814 613b 8027 093d 7c67 6b3d
00000050: 30f6 b0bd 293c a0bd b353 32bd 09cd 323d
00000060: f03d 303e ff6b 223d 88e9 a33d 1a74 5f3c
00000070: 13f6 74bd 0441 ebbd 3abb a33d 5ecd 5d3d
00000080: 970c 1cbd d88f 07be 235b 2bbb a758 803d
00000090: 8aaf 9a3d a673 b83d e7a8 e23c 01f4 f93d
000000a0: 313a dfbd 4144 7e3c ea4a d7bd cc62 123e
000000b0: 4672 2f3e 4c49 83bd 4e6d afbc f341 393d
000000c0: 7002 42be 453a 283e f76e 0e3d a883 753d
000000d0: a1b0 43be b92b babd 42d3 d0bd 6642 df3d
000000e0: 1c62 3c3e c75f 983d 8e67 bfbd 3012 09be
000000f0: b811 1e3d 9143 503e 22df 943d e7a8 dbbc
00000100: daff 94bd cbac 0b3e 3ae6 383d 7015 ac3d
00000110: 852d efbc 6e66 c13b ab46 a73c f660 91bd
00000120: 4f6f c23d 9200 8cbd 384a d8bc 7485 3f3d
00000130: 35ca 2ebc dfd9 6ebe 84bb 53be cfc4 333c
00000140: 4ccc b5bb 84b9 65bd b1a3 52be a5fe 53bd
00000150: 88d8 9cbd b329 1abd 27c4 4dbd ef79 273d
00000160: 3895 823d b61b f33b 262b 25bd 168a 06bd
00000170: 807d 363e ec83 293e f843 173d d788 833c
00000180: 9d27 26bd ec80 b33c beea 863c 3656 b93d
00000190: f705 f73d a277 e4bd a93e 553d cdd2 2bbe
000001a0: 6c11 9ebe 33f2 8d3d 5c0d 9f3d a719 3dbd
000001b0: 9eb1 283d b6b6 1cbe 06da c23d e846 013e
000001c0: 4c5e c5bd af52 b3bc b142 a2bc 875f 453e
000001d0: 037d 963d e247 08bd 2345 95bd 2d90 91bd
000001e0: 522e 263e 0c7e a13c 7f77 d43d b433 74bd
000001f0: 9211 0d3d f67e 08be 66ad 4bbd 3c19 69bd
00000200: fac4 37be fdd8 fe3d 2b71 aabd 669e 91bb
00000210: 45f3 20be 9d3c cabd 75d4 343d 455b 1fbe
00000220: b97e 8fbd 9e56 e2bc 025a 853b 9935 813d
00000230: 496e 54bd 7abf 47bd 200d 84bd fa7d a23d
00000240: 8d7b 4e3d e0be 0f3d 021d 39bd 0ca0 d03d
00000250: fa32 67bd b688 b5bd 068c 19bd 61a1 543d
00000260: d22a 80be 412f 583c c631 c8bb 01ae 023e
00000270: d08f 81bc 6652 01be 9c3d 04bd 5bda 023d
00000280: bf8a 5abd 785d d83d 4595 a7bd 9d19 6fbd
00000290: d329 a8bd 8565 893d bf54 563d 2f9f 9ebd
000002a0: 679a 09bd 62bd d4bc 33c7 cb3c 36d7 feba
000002b0: 12d1 c53d 1291 1e3c 7ab0 633d 75ff a7bd
000002c0: 2694 82bd f0e2 e1bd 89dd 09be 4b5e 44bd
000002d0: bbd9 14be 16e7 cbbd 1b33 29be 5d63 06be
000002e0: f36d a6bd 7fbc a0bd 785e 4cbd 2623 31be
000002f0: 1efa 6bbd eb4e e1bd de7d d5bc 8608 9fbd
00000300: 9ebf c4bd 5b9d 79bd 9bf3 a7bd 1480 073d
00000310: de12 29bd 4544 3fbc b396 5ebd 1428 cabd
00000320: ef4e 333e ea2b 283e 673b ff3e 586b 973e
00000330: 48d8 353e a597 133e a155 4b3e 7469 0cbe
00000340: adab 2abe 131b a33d bba7 eb3d 8201 c43d
00000350: 3ac2 6e3c 1a9c 83bd 3135 083e 93fe a43d
00000360: 97bc 183d 76c8 fdbb 3b04 8d3d de71 cfbc
00000370: 5e15 48bd a118 b6bd e207 d43c e7c9 20be
00000380: 77f5 873d 5717 f9bc 977c 62be 4835 07be
00000390: f935 0cbd 4596 85bd 0ea5 1fbc bf26 35be
000003a0: 950f 3bbe 330c 9e38 91b1 91bc 5273 933c
000003b0: 9243 08be 0034 863c 5bc3 9c3d a0b2 f23b
000003c0: 14cb 843d e0ad 0e3e 058d 343d 4851 1cbd
000003d0: 8e4c 82bc be39 7c3a 8ecf 78bd d1cf 303d
000003e0: 9faf 49bd 79dc b63d 975f cb3d 8c66 b7bd
000003f0: d28d e4bd 7c00 e3bc 0e31 2dbd 941e 703d
0.10211663 0.1656484 0.12634455 0.23557076 0.33867255 0.105835825 0.057219952 -0.012085154
-0.05026807 0.0033302337 0.16406053 0.039994594 0.08435844 0.18574949 0.25287947 0.10614644
-0.08283577 0.0034344215 0.033484936 0.057471737 -0.086407065 -0.07823975 -0.043536853 0.043652568
0.17211127 0.039653774 0.08003527 0.013638521 -0.059804987 -0.1148701 0.07994695 0.05415093
-0.038097944 -0.13238466 -0.002614685 0.06266909 0.07553013 0.09006433 0.02766843 0.12204743
-0.10899771 0.015519203 -0.105123356 0.142955 0.17133436 -0.06410465 -0.021414425 0.04522891
-0.18946242 0.16428478 0.034773793 0.05994001 -0.19110347 -0.09090371 -0.10196544 0.10901336
0.18396801 0.07440143 -0.09345923 -0.13385844 0.038591117 0.20338275 0.07269122 -0.026813937
-0.07275362 0.13640134 0.045141436 0.084025264 -0.02919651 0.005902103 0.02041944 -0.07098572
0.09493887 -0.06836046 -0.026402578 0.04675813 -0.010668327 -0.23325299 -0.20677 0.010972216
-0.0055480357 -0.056085125 -0.20570256 -0.05175652 -0.076584876 -0.037637424 -0.050235894 0.04088777
0.063761175 0.007419075 -0.040324353 -0.032846533 0.17821312 0.1655423 0.036930054 0.016056461
-0.040565122 0.02191206 0.016469356 0.090496466 0.120616846 -0.11155631 0.05206171 -0.16779633
-0.30872667 0.069309615 0.0776622 -0.046167042 0.041185014 -0.15304074 0.09514241 0.12624705
-0.09637126 -0.021890013 -0.019807192 0.19274722 0.07348063 -0.033271678 -0.072885774 -0.071075775
0.16228607 0.019713424 0.103743546 -0.05961962 0.034440584 -0.13329682 -0.049725913 -0.05690883
-0.17946234 0.12443731 -0.08322366 -0.0044439314 -0.157178 -0.09874842 0.044147927 -0.1556216
-0.07006592 -0.027629193 0.0040695677 0.06309051 -0.05186299 -0.04876659 -0.06447816 0.07934184
0.050410796 0.035094142 -0.04519368 0.101867765 -0.0564451 -0.08863966 -0.037487052 0.051911715
-0.2503267 0.01319486 -0.006109449 0.1276169 -0.015815645 -0.12629089 -0.032285318 0.03194652
-0.053354975 0.10564703 -0.08182768 -0.058374036 -0.08211102 0.067088164 0.052326914 -0.077452056
-0.033594515 -0.025969211 0.024875259 -0.00194428 0.096590176 0.009678142 0.055588223 -0.082030214
-0.06375913 -0.11029613 -0.13463415 -0.047941487 -0.14536183 -0.099561855 -0.16523401 -0.13123842
-0.0812644 -0.07848453 -0.04989478 -0.17298564 -0.057611577 -0.110013805 -0.026060995 -0.077652976
-0.096068606 -0.06094108 -0.08200761 0.03308113 -0.04127776 -0.011673992 -0.054342937 -0.098709255
0.1751058 0.16423002 0.49850008 0.29574084 0.17758286 0.14413317 0.19856884 -0.13712102
-0.16667052 0.07964148 0.115066014 0.095706 0.014572674 -0.064262584 0.13301541 0.08056369
0.03728923 -0.007744844 0.068855725 -0.02532285 -0.048848502 -0.08891416 0.025882665 -0.1570202
0.066386156 -0.030406637 -0.2211784 -0.13203919 -0.03423116 -0.06522802 -0.009743942 -0.17690562
-0.18267663 7.5362994e-05 -0.017784866 0.017999325 -0.13307026 0.016382217 0.076544486 0.0074065477
0.064840466 0.13933516 0.0440798 -0.038163453 -0.015905645 0.00096216414 -0.060744815 0.04316694
-0.04923975 0.089287706 0.09930342 -0.08955106 -0.111598626 -0.027710192 -0.04228311 0.05862291

conv2.bias f4 [16]
00000000: 8298 d3bf 35ec 7dbf 223a 8dbe 1a51 39bf
00000010: f1f9 223c a4c5 c5be 56db 49bc 9a03 14c0
00000020: f60b adbd e424 2740 2a15 2aba 5475 1abf
00000030: 32e0 6abf c872 7dbe 99a8 60bf 7830 64bc
-1.6530917 -0.9918855 -0.27583414 -0.72389376 0.009947286 -0.3862735 -0.01232036 -2.3127198
-0.08449547 2.6116266 -0.0006488139 -0.6033528 -0.91748345 -0.24750817 -0.8775726 -0.0139275715

fc1.weight f4 [120, 400]
00000000: 58ec 33bd 1b8a 2f3c 0c2f b7bd 7e1d ef3b
00000010: 66ec d83c 5a55 86bd b6f7 c5bd 8832 33be
00000020: 0ecf e9bb 9e24 4f3e 86ce 00bc 2b88 27bd
00000030: a88e 8dbd e48d 97bd daaa e1bd 6277 033b
00000040: 722b 2bbe d025 27be e634 ccbd 9eca 54be
00000050: 572f d6bd 89c5 3abe d5b4 28be 8d48 99be
00000060: e0e6 74be a70d 5bbd 4ade b0bd c337 aabd
00000070: d04d 453d 4ad4 693e 65dd 05be dea3 34bd
00000080: 6235 623e 3586 263e aaf1 fe3c 017d 6ebd
00000090: 20ec 963d aa71 353e d8fa 5e3d 5e7a 163d
000000a0: a494 b23d d1c5 49bc 57a4 29bd e768 1d3d
000000b0: 4259 c439 95f6 293e f04e 68bc cbe0 573c
000000c0: 49d1 e13c a69c 8d3d 9129 d5bc aedb 05bc
000000d0: f618 553d d8bb d73d c291 113d 9e53 973c
000000e0: 5bc9 2ebd 8e95 95bc d270 383d d7ee 763d
000000f0: 0eea ac3d 6e68 a4bb 611f 4a3d 6898 2a3b
00000100: a328 fc3c 9faf 543d 455f e7ba 2d82 903d
00000110: e4d2 5f3d 2159 b03d 8e04 bb3d eb9f a3bd
00000120: ebfc d23d 3512 1fbc 0cbd 253d 1fe5 1cbe
00000130: a0a3 ca3d b3e8 983e 5746 363e 7988 8b3e
00000140: ea2c 69be 8919 873c ba36 47bd 4a0a 0e3d
00000150: 195a 54bd 196c 6fbd b96b e3bb e49b a93d
00000160: cce1 dc3b 0e01 ab3d f330 19be 4615 7abc
00000170: c307 c33d f48f cabd 8acf 9cbc d8cd 233e
00000180: bbfa fa3c 48ff 1a3e 64db 083e ff12 ee3d
00000190: 420d a4bc 57e4 f13c 3bd3 9d3d 8ff0 04be
000001a0: 39ed acbd 7be4 75bb d2d8 d2bd 104a bfbb
000001b0: a3fe 0ebd 7f96 b4bd 687d c93b 52b5 45bd
000001c0: 8210 cebd 43fb 05bd 29d7 11be 0796 75ba
000001d0: d377 063d 8c55 b2bd 4e88 05bd 4d5d c3bd
000001e0: e554 1a3b b26a 82bd d717 c63d d729 8abd
000001f0: 4c55 68bd 6b9d 153e 5590 3f3d 97d8 663d
00000200: 0e80 8bbd ff4d 37bd 9f00 ef3d dee4 f03c
00000210: f1a6 b9bd 4d35 2abe f9b0 40be 4851 423d
00000220: e80c 33bd 244a 95bd fe47 63be ec1b 573d
00000230: db15 23be e677 d23d 149a d23d bf4c b43c
00000240: 42bb 96bd d5e5 ec3d 23c4 1c3e 7a72 8dbe
00000250: df8a cabe ccc3 81be 6b7f f4bc be0e 4b3b
00000260: 6833 af3d a9a6 e03d 4f99 973d 5284 993d
00000270: db57 e43c 4188 7d3d 5f34 dd3c 73a6 41bd
00000280: 9a4c a93d 6da6 89bd 162c 9dbd b412 973d
00000290: 5298 c4bd 13d7 f73a fc7f fdbd 0121 9bbc
000002a0: a784 0abe c9b3 2dbd e36d d83d da03 6a3d
000002b0: 04fa 6a3d 29f8 bcbc add7 c0bd 1ec8 55bd
000002c0: 510f 05bd 909a a63d 44c8 9e3d 9bb8 813e
000002d0: 2b18 bfbd f29a 063e 9cd3 a73c ce07 0dbe
000002e0: d2c1 aa3b 1665 d0bd b952 7c3c bfe0 533c
000002f0: dff7 703b 1a01 bc3d a7a3 b2bd 5414 073d
00000300: cce0 1ebe a912 aabd 2caf 453e e0d6 5a3d
00000310: 784f a33d 1f2d 9a3d 6acf e3bc 784d 01bd
00000320: ce0f 17be c099 ea3c 7e66 1dbd 8de1 2d3d
00000330: 9fa0 5f3e 23b6 9dbd 50e3 523e adf2 13bd
00000340: f51b 51bd eb09 453e 5428 d2bd ebf9 f63c
00000350: d9cc 61bd dc11 013e a35d b53d e07a b23d
00000360: 1007 0c3c 7595 fcbc 3c7c f2bd a1ab 3c3e
00000370: 56cc adbd d323 4dbe cedf dcbd 5859 32be
00000380: 4181 41bd 3f09 8a3d 1f45 ffbc f38a dc3b
00000390: 159b 163d 11e7 0dbd 4c5a d03b 1650 163e
000003a0: fa2d e23c 49b7 d0bb ed96 d13d 3c3e b0bd
000003b0: 876d de3d 5077 86bd a1b5 393d 711f bfbd
000003c0: 3073 69bd 90da 92bb e4ac 99bd ccc5 963d
000003d0: 9362 763d ca12 f3bd 47e1 59be f394 eebd
000003e0: 9194 8e3e 017c bd3e b928 2cbd 54ed da3c
000003f0: 8d5a 56bd 1e16 85bd ba5c 9fba 6094 be3c
-0.043926567 0.010714079 -0.0894452 0.007297217 0.026479911 -0.06559248 -0.09666388 -0.17499745
-0.0071352785 0.20228812 -0.007861739 -0.040901344 -0.06911975 -0.0740011 -0.110189155 0.0020060171
-0.16715792 -0.16323018 -0.09971027 -0.20780417 -0.10458248 -0.18239416 -0.16475232 -0.29938164
-0.23916197 -0.053479817 -0.08636148 -0.08311417 0.04816991 0.22834888 -0.13072737 -0.04410159
0.22090676 0.16262133 0.031121094 -0.05822468 0.07369256 0.1771914 0.054438442 0.036737792
0.08719757 -0.0123152295 -0.041416492 0.03843012 0.00037450535 0.1659797 -0.014178976 0.013176153
0.027565615 0.06914644 -0.026020797 -0.0081700515 0.052025758 0.10533875 0.035539396 0.018472489
-0.042672496 -0.01825979 0.04502947 0.06028637 0.0844308 -0.005017332 0.04934633 0.0026030783
0.030781096 0.051925298 -0.0017652294 0.07056079 0.05464448 0.0861075 0.09131728 -0.07989486
0.103021465 -0.009708931 0.040463492 -0.15321778 0.0989449 0.29865035 0.1780027 0.27252558
-0.2277104 0.016491668 -0.048636176 0.03467778 -0.051843736 -0.0584527 -0.006940332 0.08281687
0.0067407843 0.083498105 -0.14960079 -0.015263861 0.09522965 -0.09890738 -0.019141931 0.15996492
0.030637136 0.15136445 0.13364941 0.11624717 -0.020025853 0.029527826 0.07706305 -0.12982391
-0.08443684 -0.0037520218 -0.102952614 -0.0058376864 -0.03491081 -0.08817767 0.006148983 -0.048268624
-0.10061742 -0.032710325 -0.14242233 -0.0009368364 0.032829117 -0.08707723 -0.032600693 -0.0953928
0.0023549136 -0.06368007 0.09672516 -0.067462616 -0.05672197 0.14610831 0.046768505 0.0563589
-0.06811534 -0.044752117 0.1167004 0.029406007 -0.09065045 -0.16621895 -0.1881751 0.047440797
-0.04371348 -0.07289532 -0.22195432 0.052516863 -0.15926306 0.10276775 0.10283294 0.022009252
-0.07359935 0.115672745 0.15309195 -0.276264 -0.39559075 -0.25344694 -0.029845914 0.0030984129
0.08554727 0.10969288 0.07402288 0.07495941 0.027873924 0.06189752 0.027002512 -0.04727788
0.08266564 -0.06721196 -0.07674424 0.07376614 -0.09599365 0.0018908702 -0.12377927 -0.018936636
-0.13527165 -0.042407785 0.10567834 0.05713258 0.05736734 -0.02306755 -0.09416137 -0.0521928
-0.03248531 0.08134949 0.077530414 0.25336155 -0.093307815 0.13145044 0.020486645 -0.13772509
0.0052110935 -0.101755306 0.015400582 0.012932002 0.0036768836 0.091798976 -0.087226205 0.03297837
-0.1551544 -0.083043404 0.19305104 0.053427577 0.07974142 0.075281374 -0.027808864 -0.03156802
-0.14752123 0.028637767 -0.038427822 0.04245143 0.21838616 -0.077007554 0.20594525 -0.036120106
-0.051052053 0.19242065 -0.10261598 0.030148467 -0.055127 0.12604469 0.088557504 0.08714843
0.008546606 -0.030832985 -0.11840102 0.18424846 -0.084862396 -0.20033197 -0.10784875 -0.17416894
-0.047242407 0.06740045 -0.03116089 0.006730431 0.03676899 -0.03464419 0.0063584205 0.14678988
0.027609814 -0.0063695055 0.10233865 -0.0860562 0.108607344 -0.06565726 0.04533923 -0.09332169
-0.056994617 -0.004481621 -0.075036794 0.073619455 0.0601526 -0.11868818 -0.21277343 -0.116495036
0.27847722 0.3700867 -0.042031024 0.026724495 -0.05233245 -0.06498359 -0.0012158372 0.02326411

fc1.bias f4 [120]
00000000: 7080 a83d e618 373d 23c6 eb3b ce17 283d
00000010: 0617 e8bc 0480 acbc 31e3 373d 164e 903d
00000020: 17f1 1b3c b655 25bc a63b 8e3d 79bc 373e
00000030: 1958 ff3c c6ee e93d 3718 d1bc b881 88bc
00000040: 3d68 5f3c 0999 4dbd 0fdd 513e d9d0 803b
00000050: 1a84 3abd 208f 63bc 3ae1 8dbd 8ee7 1a3d
00000060: e001 bc3d 2f0c 00bd 41b2 f6bc b04c 09be
00000070: d868 103e cc50 e5bd 0a32 c83d 4421 9cbd
00000080: 9643 e7bd c7ce 6d3d 9308 a3bc 4740 72bd
00000090: c20a d5bc 41f7 a4bd b89d 74bd 1e5e 983c
000000a0: eedf e1bd f61d 693c d0f8 0abd 0e62 7fbd
000000b0: 7b6f 10bc 64e4 8e3c 3ea8 203e 6918 073e
000000c0: 406c b63d 7693 403d 009c 423d 28c0 113c
000000d0: 0f22 753c 1979 703d fe4a 03bc ee13 7abe
000000e0: 62fd 74bd 8cd2 61bd 768e 35bd bc4b e83c
000000f0: 0338 e83c df0e d5bb 7f36 27bd 1168 8c3b
00000100: ce92 f9bc 185b 243c 405f dfbd e75b 863d
00000110: 8307 343d 9084 10bb 226b 013d 447f 3e3d
00000120: fa2a 14bd 988f cfbd 932e 3c3d 622e 85bc
00000130: 74dc 1f3d 57ee 943c 5765 bdbd 388b 983c
00000140: 1e37 223d c24f 923d fd41 dbbd 8a5a 36bd
00000150: 1dcb edbd 6c34 8a3c 4b7d 8aba 00bf e9bc
00000160: 24bd 1cbe f95f 94bd 012e f7bc 2d6f cc3c
00000170: 54e8 a63b 376d 9abd e0ca 043e 707c 843d
00000180: 7ec7 a4bd d68a 68bd f94d 87bd 719a 773d
00000190: 839f 03bd c3fa bdbd 62f8 a9bd 0a4f 46bd
000001a0: cc6d fe3c f3c5 9abc 01ac 6c3a 63ae e2bd
000001b0: 5b4d 6abd 0915 143d 44f0 88bd 680a 9ebc
000001c0: 705c 2a3c fba4 003d 1e01 88bd 055c fd3c
000001d0: 15ef 3bbd a28f 52bd bf2f 37be 60f0 c6bc
0.082276225 0.04470148 0.0071952506 0.041038327 -0.02833129 -0.021057136 0.0448944 0.07046144
0.0095179295 -0.010091236 0.06944971 0.1794299 0.031169938 0.114224955 -0.025524242 -0.016663417
0.013635692 -0.050194774 0.20494483 0.0039311466 -0.045536138 -0.013889104 -0.06927724 0.037818484
0.09180045 -0.03126162 -0.030114295 -0.1340816 0.14102495 -0.111970514 0.09775169 -0.076235324
-0.11292188 0.058058526 -0.01990155 -0.05914333 -0.026006106 -0.080549724 -0.059720725 0.018599566
-0.11029039 0.014228335 -0.033928692 -0.06234937 -0.0088156415 0.01744289 0.1568918 0.13192905
0.08907366 0.04701563 0.047512054 0.008895911 0.0149617335 0.058709238 -0.008013485 -0.24421665
-0.059811957 -0.055132434 -0.044325314 0.028356425 0.028347021 -0.006502017 -0.040823456 0.0042848666
-0.03046551 0.010031484 -0.10906839 0.06560498 0.043952476 -0.002205167 0.03159631 0.04650809
-0.0361738 -0.1013481 0.045942854 -0.016257469 0.0390286 0.018180056 -0.09247845 0.018621072
0.039603345 0.07144119 -0.10705946 -0.04451994 -0.116110064 0.0168707 -0.0010565905 -0.028533459
-0.15306526 -0.07244868 -0.030173304 0.024955356 0.0050936136 -0.07540362 0.12968016 0.06469047
-0.080458626 -0.05677303 -0.06606669 0.06045002 -0.032134544 -0.092763446 -0.082993284 -0.04841522
0.031058215 -0.018893218 0.0009028316 -0.11068418 -0.05720268 0.036152873 -0.06686452 -0.019292071
0.010398015 0.031407338 -0.06640838 0.030927667 -0.045882303 -0.05140651 -0.17889307 -0.024284542

fc2.weight f4 [82, 120]
00000000: b019 65bd ef04 c9bc 9e22 80ba e2de 49be
00000010: f861 72bc d667 813c ea7d 74be cb96 44be
00000020: 07bc 933e b2a5 07be 8cb1 eb3e 8402 df3d
00000030: 6def aebd f8ff 573c b6e6 bcbd 7e9b c8bd
00000040: b069 bfbc fc70 673c f335 bf3e 66ea 3fbd
00000050: 9cd0 1d3d 872b b13e bddc 123d 1c72 b0bd
00000060: d817 e2be 3b30 76bd 5606 69be 1ef7 023d
00000070: 9eba 9c3e 9122 05be 5d83 4a3f 3a94 aabc
00000080: de39 5bbe 7b67 93bc 8c9a 1ebe cf9c 8dbd
00000090: 6a07 82bd 663a b0bd fb92 b8bc 890e f33e
000000a0: 6c3c 4abe a185 0ebe 5fbd 4b3e 45c2 afbd
000000b0: c014 893d b27c 01be d923 e3bd a259 693d
000000c0: 05ea bb3e 6776 7dbd d9f3 363d 7266 afbd
000000d0: f766 d73c 9985 e13c 28f8 973d a12f 53be
000000e0: 6cc7 9dbd f227 3cbe 8e67 96bd d766 833d
000000f0: be49 d4bd 0f00 48be 1c1d 233d cc4b 8fbd
00000100: 11a8 68be a6c9 8abd e0e1 1e3e 1ac7 2e3f
00000110: 97aa 2ebd d858 04be 757d f2bc 068d cd3b
00000120: 6c7f 17bd 38ad 78be 1e4f a5be 9313 083e
00000130: be8d 28be d6d8 cabd eb9d 47be 5069 34be
00000140: 5b7c c73e f7db 9ebd 0011 81be fd80 54bd
00000150: 46d5 443e 9613 00be ae2b 88bd e910 533d
00000160: d03a 3ebd b1f6 f2bd 891e 9c3d a403 0e3d
00000170: 4a62 95bb c5ef dcbd d574 5dbe 52f9 19bf
00000180: d6d4 76bd e61e c2bc 7ec4 143e d9cb b8bc
00000190: 31bc 083d dcfa 52be 750c 81bc 581c 5d3e
000001a0: b49d 3ebe 1b90 4b3d f0e4 43be 6b2d 52be
000001b0: c2ae a5be 6b47 f1bd 514f 33bc 588b 113e
000001c0: 945f 773c 8e08 67bd f5d4 103d 71bb 8abc
000001d0: 2f4f 013e 7bd7 4abc 8ae8 14be 4213 0bbe
000001e0: 0068 303e e8a8 033f 2eb9 703e 8ec7 2b3d
000001f0: 5b15 563e 2cb3 ab3d 7bc5 203d a941 fdbd
00000200: fc24 bb3d d56c 883d 12c1 143f 23a8 46bc
00000210: 8967 643d 42d9 243f 2b5a ee3b 30dd a0be
00000220: cbbd b2be ef8f e6bd 5b66 6f3e 4413 14be
00000230: 9ae4 cabd 09a7 d0ba eefd 6d3e 6987 80be
00000240: 60b0 8dbe a7ab 7ebd 1303 b9bd cdb5 df3e
00000250: 0888 563e 3995 58bb 5aa4 cf3e 566d 973d
00000260: d7d8 31be d7fd 56be b5b2 5fbe eccc 71be
00000270: 5e33 9e3d fe49 293d 7b1b 403e be7a a2bd
00000280: cff9 8f3c 3a63 20bd 5495 8a3d 6226 00be
00000290: 36c6 9dbd 6ccd e2bd 0cc3 5b3e 2618 0b3d
000002a0: f99b 3bbe 58f3 623e 0e4a 2b3e 4edd ce3e
000002b0: bca6 dc3d de0c e1bd ba90 7a3d 210e b4be
000002c0: 00c0 b9be 520b 18be 5540 233e 77fe b83d
000002d0: 10ac 663d 8de5 653e e2d6 933e 790d 44be
000002e0: 88d4 22be b37a 383c 35bb 9d3e ad47 77be
000002f0: e5fd e8bd 127f b43c 80a7 3f3e 4f81 9e3c
00000300: 1dfe 803d 3ae3 0cbe d03c 53bd 7b4e a43b
00000310: 201d 813e 0a36 483e 0c9c 4abe c570 a8bd
00000320: 283d b83d c2a0 1b3e a29b ddbd a49b 81bb
00000330: 3ea9 bb3d d100 153e 44bd 4bbe 14ec a43d
00000340: aca9 e43d 8fc4 ebbd 648b a03b 3590 0b3c
00000350: 03cb e03d 1886 9c3b cb35 2b3b 5ec0 493e
00000360: 3c31 a7be 9315 fabd f71c 32be 4634 9cbd
00000370: 4ff8 babd 29ab debe 7764 24be d074 6abe
00000380: 4869 df3e 34dd 923d 5e84 1d3d 64e4 b2bc
00000390: 90b8 083e 5b59 09be 67a5 f63c 786e 7fbd
000003a0: a912 25be 3853 4a3e 884e 92bc dda9 8b3b
000003b0: 3a4e 2d3e bd11 88bd 99b5 93be be16 1d3d
000003c0: 0587 823e 00ce 003e 1d88 46be f9cc 093f
000003d0: 173d 11be 9ac8 d2bc d8a9 aabe 360a 9cbe
000003e0: 7fee e93c 1d6b 293d 865e ae3d 35da 3b3e
000003f0: 5784 b63e 93fd 143e 1fb8 a0be 97f1 713e
-0.0559327 -0.024538485 -0.0009775942 -0.1971393 -0.014793865 0.015796583 -0.23876157 -0.19198148
0.2885439 -0.13246801 0.46033895 0.10889152 -0.085417606 0.013183586 -0.09223692 -0.09795283
-0.023365825 0.014126059 0.37345847 -0.0468544 0.038529024 0.3460352 0.035855044 -0.08615515
-0.44158816 -0.06010459 -0.22756323 0.03197395 0.30611128 -0.13001467 0.79106694 -0.020822633
-0.21408793 -0.01799368 -0.15488642 -0.069146745 -0.0634907 -0.086048886 -0.022531023 0.47472027
-0.19749612 -0.13918163 0.19896458 -0.08581976 0.06693411 -0.12645224 -0.11090822 0.056970246
0.3670198 -0.061880495 0.044666145 -0.08564462 0.026294215 0.027529525 0.07420379 -0.20623638
-0.07704052 -0.18374613 -0.0734397 0.064160995 -0.10365628 -0.19531272 0.039822683 -0.06996879
-0.22720362 -0.06776743 0.15515852 0.68272555 -0.042643156 -0.12924516 -0.029600838 0.006272915
-0.036986753 -0.24284828 -0.32286924 0.13288717 -0.1646032 -0.099046394 -0.19493835 -0.17618299
0.38962063 -0.07756799 -0.25208282 -0.051880825 0.19221982 -0.12507471 -0.06648956 0.0515298
-0.046442807 -0.11863459 0.076230116 0.03467144 -0.004558836 -0.1078792 -0.21626599 -0.6014606
-0.06026157 -0.023696374 0.14528081 -0.02255814 0.0333826 -0.20603508 -0.01575301 0.21592844
-0.18614846 0.049697977 -0.19130301 -0.20525138 -0.32359892 -0.117812 -0.0109442035 0.14213312
0.015098471 -0.056404643 0.03535934 -0.016935082 0.12627862 -0.012380476 -0.14541832 -0.13581565
0.17227173 0.51429605 0.2350814 0.041938357 0.20906584 0.08383784 0.039250832 -0.12366039
0.091379136 0.06661383 0.581071 -0.012125048 0.0557628 0.6439401 0.0072739325 -0.31418753
-0.34910426 -0.11257922 0.2337889 -0.14460474 -0.099068835 -0.0015918921 0.23241398 -0.2510331
-0.27673626 -0.06217542 -0.090337895 0.4369339 0.2095033 -0.0033047928 0.40555078 0.07393901
-0.17367874 -0.2099527 -0.21845515 -0.23613328 0.07724641 0.04133033 0.18760483 -0.079335675
0.017575173 -0.03915713 0.06766763 -0.12514642 -0.07703821 -0.11074337 0.21461123 0.033958577
-0.18321218 0.22163141 0.16727468 0.40403217 0.107739896 -0.10988782 0.06117318 -0.3516703
-0.36279297 -0.14848068 0.1594251 0.0903291 0.056316435 0.22450848 0.2887488 -0.19145764
-0.15901387 0.0112597225 0.3080689 -0.24148436 -0.113765515 0.022033248 0.1871624 0.019348769
0.06298468 -0.13758555 -0.051571667 0.0050142384 0.25217533 0.19551864 -0.1978609 -0.08224634
0.0899604 0.15198043 -0.108207 -0.0039553214 0.0916314 0.14551093 -0.19896418 0.08052841
0.11165175 -0.115121 0.004899429 0.008518268 0.109762214 0.0047767274 0.0026124592 0.19702289
-0.3265475 -0.12211146 -0.17393862 -0.07627158 -0.09129392 -0.4348996 -0.1605395 -0.22896123
0.4363501 0.071710974 0.038456313 -0.02183742 0.13351655 -0.13412993 0.030108167 -0.06236121
-0.161204 0.19758308 -0.017859712 0.0042621926 0.16924372 -0.06644008 -0.28849486 0.038351767
0.25493637 0.12578583 -0.1938786 0.5382839 -0.1418346 -0.02573042 -0.33332705 -0.3047654
0.028556107 0.041361917 0.08514123 0.18344958 0.35647842 0.14549856 -0.31390473 0.23627315

fc2.bias f4 [82]
00000000: b4ed 3dbd 8569 79bd 3389 103d 024d cf3d
00000010: 6df7 b43d cadd 45bd 2460 3a3e d80a 2d3f
00000020: 876b 9e3e 7423 9a3d f07b 453e e943 983d
00000030: 1e55 983d c319 33be 8a0f 443e 430d 983c
00000040: d93e 08bc bbf2 25bd 1b98 b2bd ef74 783c
00000050: 7e23 17be 8c63 5c3d d99f ecbd 6422 9a3e
00000060: 8355 d7bd 8fc2 bdbd 0827 93bd dfdf d43e
00000070: 7b04 f8bd 0699 d8bc ecc6 1f3e 09aa 93bd
00000080: 6ca2 3cbd c27e a2bc 7d33 a7bd 731a 7ebe
00000090: 3903 99bb 196e 7e3d 24d8 873b 55af cabd
000000a0: 7db5 02bd f69d 92bd 01ed 53bd 9d7f 9cbc
000000b0: 850e f1bd 60ab 73bd 5ebb ed3b f997 94bd
000000c0: 0af4 8bbd ac68 473d 7d45 1abe 142c 423d
000000d0: 4888 fe3c 8be4 58bd 5931 83bc f1e8 aebd
000000e0: ba04 debd 1f89 f3bb 7c8d 0abe 03af 97bc
000000f0: f7cc a2bd 1f6c 2dbe 2b21 873c b4b3 cf3d
00000100: 6859 fabd 1f5b 4abd 66b9 13be f73f 153d
00000110: f9a0 e3bd e4ae 593d 4fb4 cdbd 4d07 d3bd
00000120: 0da4 24be c808 ff39 3bc8 dd3e 84b0 b1bd
00000130: 9665 443e a839 0cbd 9579 853e 2495 143e
00000140: 4cf4 543d 9464 073d
-0.04636927 -0.060891647 0.035287093 0.1012211 0.08836255 -0.048307218 0.18200737 0.6759467
0.30941412 0.075262934 0.1928556 0.07434828 0.0743811 -0.17490296 0.19146553 0.018561011
-0.008315765 -0.04051469 -0.08720418 0.015164598 -0.14759633 0.053805873 -0.11553926 0.30104363
-0.10514357 -0.09265625 -0.07185179 0.4157705 -0.121102296 -0.026440155 0.15603226 -0.07210166
-0.046053335 -0.019835833 -0.081641175 -0.24814777 -0.0046695736 0.062116716 0.004145639 -0.09896723
-0.031911362 -0.07159035 -0.051739696 -0.01910382 -0.117703475 -0.059489608 0.007255002 -0.07255549
-0.06833656 0.048683807 -0.1506557 0.047405317 0.031070843 -0.05295233 -0.016014742 -0.08540524
-0.10840745 -0.0074321176 -0.13530535 -0.01851607 -0.0794925 -0.16935776 0.016495308 0.101416975
-0.12224084 -0.049403306 -0.14426193 0.036437955 -0.111146875 0.053145304 -0.10044157 -0.10304127
-0.16078205 0.00048643933 0.43316826 -0.08676246 0.19179377 -0.034234673 0.26069322 0.14510018
0.051990792 0.033054903
